model.pth (torch, 124207 bytes, 14 tensors)

weight f4 [16, 1, 5, 5]
0.0046011177 0.104689695 0.1293068 0.1254923 0.16532901 -0.24775355 -0.21244702 -0.12006823
-0.17428914 0.061536577 0.1685573 -0.09272144 0.12182951 0.12800811 -0.31031644 0.15352915
-0.04087253 -0.09562065 0.27878752 0.2820537 -0.038827695 -0.09899213 -0.10882514 -0.1640081
0.010338973 0.056045108 0.032142133 -0.12699063 0.08404654 -0.15978292 -0.1057794 0.3139848
0.15842867 0.1032519 -0.21981442 -0.13921997 0.2263196 -0.060915194 -0.12702516 -0.26368627
-0.18424708 -0.24251881 0.21071073 -0.08227587 0.035685252 0.080061436 -0.25877416 -0.16906697
0.036460526 0.11517071 -0.24251291 -0.26228628 -0.033167686 -0.101790704 0.2924275 0.10274393
-0.018746095 -0.07173786 0.23746271 0.13153033 0.25480995 -0.036363374 -0.12901379 -0.23134574
-0.23665911 -0.07409181 0.12711814 0.122037165 -0.19051553 -0.110773765 0.022947703 0.11930583
0.062227067 -0.14270686 -0.06963998 -0.04394419 -0.07576583 -0.17529376 -0.087119356 0.12369205
-0.12766266 -0.03944813 -0.20636022 0.37548026 -0.13222402 -0.08108623 0.060410153 0.3304473
0.05296121 -0.09481078 0.081999145 0.18542443 0.0655181 -0.31661874 0.17235845 0.09488925
0.012107016 -0.20053804 -0.09073797 0.064763166 0.0729228 0.13356471 0.08334029 -0.21556404
-0.13215452 -0.24470806 0.21713355 0.026493682 0.08110717 0.20240346 -0.1676258 -0.13622352
0.0064938087 0.018195894 0.16732074 -0.07056381 0.14014992 -0.32229832 0.11814452 0.0566017
0.23675594 0.017528266 -0.1278287 0.054614328 -0.18439828 -0.22418791 -0.04011738 -0.16567536
0.019010115 0.16410092 0.01386656 -0.026038617 -0.058447093 -0.01157277 0.0678143 -0.13932271
0.14607964 0.2187843 0.111915335 0.11001914 -0.057938136 -0.2677398 -0.35480455 -0.1340406
-0.24727902 0.1540657 0.1872449 0.20007263 0.14019664 0.17464197 0.086993136 0.25835374
0.088794425 -0.12909938 -0.11101618 -0.3049898 0.015386364 0.1437953 0.1322407 0.19872957
0.16577865 0.33400232 0.16690648 -0.065458946 -0.17308842 0.10848813 0.10361864 0.14482503
-0.24047786 0.019427927 -0.14243667 -0.1690662 0.058234204 0.04362279 0.07316995 -0.10513802
-0.29420933 0.13335447 -0.108740285 -0.13591853 0.024085471 0.12642018 0.2168823 -0.06649143
-0.33497488 0.118404046 0.10824065 0.11072781 0.0535964 -0.28321993 -0.12933399 0.08096559
0.19078484 0.058704168 0.042673394 -0.19978462 0.17872512 -0.04721074 -0.17924368 0.009673636
0.12320252 -0.08977925 -0.2822057 0.21738103 0.149281 0.23120508 0.09964578 -0.0611858
0.00047716143 0.15216653 0.03527027 -0.11403828 -0.056953732 0.1796529 0.009613495 0.09898618
0.10260694 -0.11109772 -0.286529 -0.24293691 -0.027264232 -0.30141 -0.07054784 0.19605528
0.18162723 -0.101271324 -0.074543685 -0.19765504 0.15609252 -0.017793912 0.1722631 0.007743579
-0.23204114 0.010619845 0.09141493 0.12869902 0.18134798 -0.12352934 0.08602862 0.072268195
-0.168536 0.1821922 -0.2575945 -0.029820405 0.2062823 -0.103685655 0.19730772 0.043457728
-0.28131634 0.1326128 -0.08650836 0.11939114 -0.030389817 -0.015306864 0.05544207 -0.09159135
00000000: f9c4 963b 8d67 d63d 0069 043e 0e81 003e
00000010: 024c 293e 1bb3 7dbe b68b 59be 55e6 f5bd
00000020: da78 32be c70d 7c3d 499a 2c3e bde4 bdbd
00000030: c081 f93d 8f14 033e cce1 9ebe bf36 1d3e
00000040: f469 27bd c2d4 c3bd 3dbd 8e3e 5869 903e
00000050: ca09 1fbd 63bc cabd b7df debd bdf1 27be
00000060: cc64 293c 8e8f 653d 78a7 033d d509 02be
00000070: 9820 ac3d 229e 23be dfa2 d8bd 9ec2 a03e
00000080: 203b 223e bb75 d33d 0817 61be ae8f 0ebe
00000090: 53c0 673e 3682 79bd e212 02be e301 87be
000000a0: 44ab 3cbe da56 78be 8ec4 573e 4080 a8bd
000000b0: b32a 123d 40f7 a33d 0c7e 84be e41f 2dbe
000000c0: a257 153d 9fde eb3d 4e55 78be 634a 86be
000000d0: d7da 07bd a577 d0bd 0fb9 953e 696b d23d
000000e0: 6991 99bc 4deb 92bd 6d29 733e e3af 063e
000000f0: 7376 823e c3f1 14bd 311c 04be e6e5 6cbe
00000100: c456 72be 72bd 97bd 422b 023e 9fee f93d
00000110: 8116 43be 5bdd e2bd d2fc bb3c 9d56 f43d
00000120: cfe1 7e3d bf21 12be 689f 8ebd d3fe 33bd
00000130: 1e2b 9bbd 3580 33be a26b b2bd 4252 fd3d
00000140: 00ba 02be 5d94 21bd 1850 53be f33e c03e
00000150: bc65 07be 8a10 a6bd a370 773d 6330 a93e
00000160: dbed 583d 272c c2bd 2bef a73d e7df 3d3e
00000170: 5b2e 863d da1b a2be bc7e 303e 4c55 c23d
00000180: 815c 463c d859 4dbe d4d4 b9bd 8da2 843d
00000190: 8d58 953d 30c5 083e 50ae aa3d d2bc 5cbe
000001a0: 8453 07be c094 7abe 4258 5e3e 4709 d93c
000001b0: 841b a63d da42 4f3e 19a6 2bbe 2e7e 0bbe
000001c0: 04ca d43b 8e0f 953c 2156 2b3e c283 90bd
000001d0: 7683 0f3e 4904 a5be c1f5 f13d 2fd7 673d
000001e0: 2670 723e 7097 8f3c 87e5 02be 46b3 5f3d
000001f0: e7d2 3cbe 8491 65be 1f52 24bd cda6 29be
00000200: 1abb 9b3c 120a 283e 9130 633c f04e d5bc
00000210: 3866 6fbd b79b 3dbc 39e2 8a3d 9daa 0ebe
00000220: e795 153e fe08 603e de33 e53d b751 e13d
00000230: 8a50 6dbd 3115 89be f1a8 b5be f041 09be
00000240: b636 7dbe 66c3 1d3e 21bd 3f3e d7df 4c3e
00000250: b58f 0f3e 58d5 323e 7529 b23d f146 843e
00000260: dad9 b53d a132 04be 735c e3bd a027 9cbe
00000270: 1717 7c3c 133f 133e 1b6a 073e c47f 4b3e
00000280: e1c1 293e 5a02 ab3e 88e9 2a3e 570f 86bd
00000290: 173e 31be 062f de3d 0236 d43d 034d 143e
000002a0: d43f 76be 5127 9f3c ebda 11be b11f 2dbe
000002b0: fd86 6e3d d0ad 323d 20da 953d 9a52 d7bd
000002c0: 9ba2 96be 138e 083e 3ab3 debd 3a2e 0bbe
000002d0: e54e c53c 4b74 013e 6516 5e3e a92c 88bd
000002e0: d481 abbe d27d f23d 46ad dd3d 43c5 e23d
000002f0: e687 5b3d 3402 91be 2170 04be 4ad1 a53d
00000300: 1a5d 433e c873 703d 4cca 2e3d 5794 4cbe
00000310: b803 373e 0d60 41bd a88b 37be 2c7e 1e3c
00000320: 9a51 fc3d 2fde b7bd 447d 90be 2299 5e3e
00000330: 1edd 183e 06c1 6c3e 1613 cc3d f69d 7abd
00000340: 862b fa39 8bd1 1b3e 8f77 103d e78c e9bd
00000350: 5148 69bd eef6 373e ec81 1d3c 44b9 ca3d
00000360: 9623 d23d 3487 e3bd eeb3 92be 74c4 78be
00000370: 3d59 dfbc 6952 9abe 637b 90bd b7c2 483e
00000380: 7dfc 393e 5767 cfbd 5caa 98bd 1566 4abe
00000390: b8d6 1f3e 8ac4 91bc bd65 303e d9bd fd3b
000003a0: 319c 6dbe dcfe 2d3c c037 bb3d adc9 033e
000003b0: 49b3 393e f3fc fcbd c62f b03d 5901 943d
000003c0: b494 2cbe 9890 3a3e 6de3 83be ec49 f4bc
000003d0: ab3b 533e 2559 d4bd 090b 4a3e bb00 323d
000003e0: b208 90be a6cb 073e 4c2b b1bd 5883 f43d
000003f0: 11f4 f8bc a4c9 7abc 3917 633d 3f94 bbbd

bias f4 [16]
0.08025003 -0.15838489 0.0728353 -0.09720026 0.14708428 0.10950377 -0.081747204 -0.0026093253
0.2954661 0.1102445 0.1615715 -0.0045705223 -0.1558532 0.13637161 0.2638971 0.08195206
00000000: 215a a43d a62f 22be ac2a 953d ee10 c7bd
00000010: 439d 163e 8343 e03d 146b a7bd 3701 2bbb
00000020: 5547 973e dec7 e13d 0073 253e 52c4 95bb
00000030: fb97 1fbe 00a5 0b3e 851d 873e 7bd6 a73d

weight f4 [16]
0.85053194 1.3139452 1.2386767 0.90626323 0.8674761 0.83201224 0.7116191 0.9349761
0.8097347 0.950362 0.9891499 1.0053934 1.1152405 1.1865093 0.94504935 0.9451085
00000000: 76bc 593f 5b2f a83f f58c 9e3f de00 683f
00000010: ea12 5e3f c1fe 543f ab2c 363f 985a 6f3f
00000020: c64a 4f3f ed4a 733f ee38 7d3f bbb0 803f
00000030: 33c0 8e3f 89df 973f c1ee 713f a1f2 713f

bias f4 [16]
-0.0062876767 -0.41754958 -0.36729318 -0.2208898 -0.32577956 -0.14702205 -0.6048212 -0.22016527
-0.062132847 -0.12391564 -0.056970946 -0.23562354 -0.10689048 -0.45562097 -0.07049927 0.049095176
00000000: db08 cebb 0fc9 d5be da0d bcbe f030 62be
00000010: 94cc a6be f38c 16be 90d5 1abf 0173 61be
00000020: 037f 7ebd 7cc7 fdbd 5e5a 69bd 4c47 71be
00000030: 65e9 dabd 2747 e9be ec61 90bd 0618 493d

running_mean f4 [16]
0.76194775 -48.006176 -34.11946 -4.8045206 2.4579213 -0.8998427 58.24114 -27.582193
5.9386425 7.383887 3.9048595 -18.587887 1.5576242 -26.905731 -1.3717469 1.0641625
00000000: 020f 433f 5306 40c2 547a 08c2 a2be 99c0
00000010: 954e 1d40 175c 66bf edf6 6842 55a8 dcc1
00000020: 5c09 be40 cd48 ec40 38e9 7940 feb3 94c1
00000030: 3b60 c73f f03e d7c1 6795 afbf 7a36 883f

running_var f4 [16]
1132.6494 3292.4998 2384.0732 768.7707 657.937 1576.2899 5477.098 2920.522
1642.3414 1278.7516 838.1389 1647.7012 1095.273 2109.741 384.8004 3504.3542
00000000: c894 8d44 ffc7 4d45 2c01 1545 5331 4044
00000010: f87b 2444 4709 c544 c928 ab45 5a88 3645
00000020: ed4a cd44 0dd8 9f44 e488 5144 70f6 cd44
00000030: bce8 8844 dbdb 0345 7466 c043 ab05 5b45

weight f4 [32, 16, 5, 5]
0.16637702 -0.15282604 -0.06588938 0.063255064 -0.119864024 -0.015349956 0.06592188 0.15977676
-0.10120913 0.059967704 0.059555136 -0.009531535 0.0011267567 -0.14845836 -0.04080648 -0.035754632
0.09689605 0.10572698 0.05014876 -0.14779669 0.14237432 0.11805789 0.0015304529 0.13466935
0.06509228 -0.037555315 0.04653762 0.1745037 -0.058655564 0.09111567 -0.022533251 0.12886414
-0.037463155 -0.015647199 -0.220175 0.034680862 0.014072638 -0.17651424 -0.018687727 -0.21525198
0.16873898 0.11135204 -0.09625708 -0.044943288 -0.08440341 0.14506914 0.07821252 -0.068994954
-0.04991765 0.07666275 -0.12564449 0.017369913 0.22476654 0.041638196 0.04974617 -0.05268695
0.06779144 -0.074227065 -0.08371228 -0.032205917 -0.17315704 -0.08316394 0.057519916 0.15681225
0.09405213 -0.097618096 -0.22594409 0.011927483 0.1138602 0.117997624 0.23129514 -0.15335135
-0.0035400302 0.22239944 0.103153355 0.052060217 -0.08433273 0.016995294 0.060146898 0.05730585
0.22935702 0.0897649 -0.07659918 -0.10443193 0.037960205 -0.038316976 0.026161492 -0.07030792
0.13120444 0.103626005 0.055349477 -0.09084361 -0.031879477 0.016948141 0.04765567 0.16662823
-0.07168935 -0.08125436 0.03141024 -0.003996086 -0.031708974 0.040481288 -0.22897527 0.06825752
-0.042202298 0.016568337 0.007050196 0.034444027 -0.02763496 0.11499191 0.12278468 -0.0827775
-0.0016151171 -0.19051318 0.13706987 0.07781912 -0.05957171 -0.012412031 0.11392136 0.102186754
-0.073036365 -0.092322625 0.019754518 0.083450645 -0.031188862 0.13403738 -0.023868687 -0.058653165
-0.064595036 0.15521285 0.06132728 0.04061124 -0.07343815 -0.14303963 -0.021771042 -0.12305548
-0.1675969 0.034301147 0.084123455 0.0940917 0.06446309 -0.028767318 -0.12105069 0.02191613
0.070335254 -0.106619924 -0.0045817746 -0.056802183 0.109284185 -0.030236453 0.007176862 0.11014417
0.10301146 0.15433213 0.07390463 0.06962343 0.1159184 0.11549815 0.03649791 0.031128528
0.06493956 0.03804744 -0.03562658 0.04748212 0.0049042613 -0.10820299 -0.06604595 -0.025436109
0.06183597 0.078306094 -0.15908208 -0.09477899 -0.094411306 -0.10531266 -0.077696614 -0.040161528
0.11303509 0.08546544 -0.11372459 0.13672373 0.04173498 0.0671472 -0.12188483 -0.11017175
-0.13590036 -0.19902596 -0.2708151 -0.1405068 -0.046349373 -0.09443036 -0.056266055 -0.13771278
-0.028375614 -0.057330627 -0.06807024 -0.08488742 -0.09150269 -0.00880361 -0.078010485 -0.023911383
0.105233945 0.016550273 0.06859509 0.17079997 0.14601555 0.07455776 0.1384867 -0.011112139
-0.0016600929 -0.1552079 -0.05748783 0.14450692 -0.05594977 -0.024682589 -0.053423673 0.10688905
0.028019348 0.0076038945 -0.136173 -0.23632804 0.06030402 -0.12395718 -0.030346936 -0.029253459
-0.08011011 0.001999125 0.038627934 0.03793181 -0.20997883 -0.21061832 -0.058603957 -0.0814557
-0.18708242 -0.13747908 -0.19543026 0.03640844 -0.10393089 0.043726537 0.037111335 -0.12915298
-0.2352411 0.059763502 0.14031304 0.04519672 0.002568019 -0.059024896 -0.068161406 0.00436902
-0.030427745 0.07080106 -0.12873979 0.08205785 -0.08775789 -0.049514644 -0.032101147 0.03371586
00000000: bd5e 2a3e 6e7e 1cbe 03f1 86bd df8b 813d
00000010: 457b f5bd 627e 7bbc 0d02 873d 859c 233e
00000020: bb46 cfbd b2a0 753d 16f0 733d 282a 1cbc
00000030: aeaf 933a 7805 18be b224 27bd 7373 12bd
00000040: 7071 c63d 6387 d83d c968 4d3d 0458 17be
00000050: 93ca 113e 56c8 f13d 7a99 c83a c3e6 093e
00000060: 1a4f 853d 9ad3 19bd 3b9e 3e3d 19b1 323e
00000070: d140 70bd da9a ba3d a797 b8bc f6f4 033e
00000080: f772 19bd 8e2e 80bc 8e75 61be 850d 0e3d
00000090: ec90 663c 26c0 34be 0117 99bc 046b 5cbe
000000a0: e9c9 2c3e 8a0c e43d 6f22 c5bd 7416 38bd
000000b0: b2db acbd 018d 143e e32d a03d 3a4d 8dbd
000000c0: 7376 4cbd 5c01 9d3d f3a8 00be 594b 8e3c
000000d0: 3329 663e d08c 2a3d a4c2 4b3d 45ce 57bd
000000e0: 3dd6 8a3d 5c04 98bd 5871 abbd 5aea 03bd
000000f0: 1450 31be db51 aabd 019a 6b3d 6493 203e
00000100: 679e c03d ffeb c7bd e35d 67be 7d6b 433c
00000110: 892f e93d bda8 f13d a2d8 6c3e 2308 1dbe
00000120: daff 67bb aebc 633e 1142 d33d 183d 553d
00000130: a3b6 acbd b739 8b3c 985c 763d 8ab9 6a3d
00000140: 91dc 6a3e a9d6 b73d 08e0 9cbd 68e0 d5bd
00000150: 297c 1b3d 43f2 1cbd a050 d63c 99fd 8fbd
00000160: 755a 063e df39 d43d 22b6 623d 370c babd
00000170: 0e94 02bd d4d6 8a3c 9832 433d 97a0 2a3e
00000180: ded1 92bd b068 a6bd 06a8 003d 99f1 82bb
00000190: 45e1 01bd b5cf 253d 7e78 6abe 99ca 8b3d
000001a0: 51dc 2cbd 52ba 873c 5505 e73b 2e15 0d3d
000001b0: b662 e2bc e180 eb3d 8976 fb3d 4087 a9bd
000001c0: 56b2 d3ba e315 43be 0b5c 0c3e a15f 9f3d
000001d0: 7701 74bd d55b 4bbc 9a4f e93d 4a47 d13d
000001e0: 1794 95bd a513 bdbd 3ad4 a13c 2ce8 aa3d
000001f0: c97f ffbc 1841 093e 4488 c3bc 4d3e 70bd
00000200: 674a 84bd 1ef0 1e3e 5032 7b3d f957 263d
00000210: be66 96bd fb78 12be 2f59 b2bc 8304 fcbd
00000220: 869e 2bbe 5c7f 0c3d eb48 ac3d 26b3 c03d
00000230: 3905 843d 70a9 ebbc 6de9 f7bd 7589 b33c
00000240: ee0b 903d 8c5b dabd b622 96bb 68a9 68bd
00000250: 63d0 df3d 70b2 f7bc e22b eb3b 4493 e13d
00000260: acf7 d23d 3e09 1e3e 505b 973d bb96 8e3d
00000270: a066 ed3d 4b8a ec3d d57e 153d 4101 ff3c
00000280: 08ff 843d a2d7 1b3d 2ded 11bd 9d7c 423d
00000290: edb3 a03b 8799 ddbd 1943 87bd 635f d0bc
000002a0: b747 7d3d f25e a03d 6ae6 22be 7d1b c2bd
000002b0: b75a c1bd 2aae d7bd 671f 9fbd 6a80 24bd
000002c0: f17e e73d 8108 af3d 70e8 e8bd 4e01 0c3e
000002d0: 4cf2 2a3d 7984 893d c19e f9bd baa1 e1bd
000002e0: 7729 0bbe 76cd 4bbe 47a8 8abe 04e1 0fbe
000002f0: d7d8 3dbd b464 c1bd 3c77 66bd 9404 0dbe
00000300: fa73 e8bc 85d3 6abd 6968 8bbd 75d9 adbd
00000310: c365 bbbd 043d 10bc f6c3 9fbd cee1 c3bc
00000320: e584 d73d 7094 873c 957b 8c3d 30e6 2e3e
00000330: 1a85 153e bdb1 983d 75cf 0d3e b00f 36bc
00000340: 7997 d9ba d2ee 1ebe 5c78 6bbd 9ff9 133e
00000350: 962b 65bd 2433 cabc c8d2 5abd a5e8 da3d
00000360: d588 e53c 172a f93b ef70 0bbe faff 71be
00000370: 5901 773d 43dd fdbd 239a f8bc f3a4 efbc
00000380: c510 a4bd c003 033b 5338 1e3d 635e 1b3d
00000390: b104 57be 54ac 57be b40a 70bd 3fd2 a6bd
000003a0: 8992 3fbe 51c7 0cbe df1e 48be 0421 153d
000003b0: b8d9 d4bd 991a 333d 0e02 183d ae40 04be
000003c0: 0be3 70be 93ca 743d 39ae 0f3e 3220 393d
000003d0: 364c 283b 17c4 71bd 3598 8bbd ff29 8f3b
000003e0: 9b43 f9bc 2500 913d 5dd4 03be f20d a83d
000003f0: 69ba b3bd decf 4abd 7e7c 03bd a419 0a3d

bias f4 [32]
-0.02692039 0.09677426 0.026057687 -0.07158825 -0.02505568 0.022465808 -0.05846149 0.05269491
0.12153666 -0.05061374 -4.5255183e-05 -0.18187101 0.026686268 -0.018010382 -0.25571132 -0.0046159425
0.12657923 0.022919374 -0.018490596 -0.015187785 -0.044090882 -0.08530818 -0.07285635 -0.06433745
-0.010930091 0.03392047 -0.0353245 -0.018491426 -0.08723268 0.037251208 -0.028874297 0.06185753
00000000: 2688 dcbc 9531 c63d ee76 d53c dc9c 92bd
00000010: 9241 cdbc 370a b83c 5175 6fbd 9ed6 573d
00000020: 36e8 f83d 5a50 4fbd 62d0 3db8 653c 3abe
00000030: 299d da3c 828a 93bc 98ec 82be 5541 97bb
00000040: fc9d 013e 69c1 bb3c 9779 97bc 30d6 78bc
00000050: a498 34bd 0eb6 aebd b635 95bd 5ac3 83bd
00000060: 2014 33bc 31f0 0a3d 6cb0 10bd 557b 97bc
00000070: 0ca7 b2bd b994 183d ca89 ecbc 525e 7d3d

weight f4 [32]
1.1994361 1.2210162 1.2433257 1.189763 1.1641408 1.301967 1.2252741 1.1008974
1.2170901 1.1419191 1.1287551 1.1315277 1.1899796 1.2739697 1.217324 1.1965848
1.1958934 1.1657363 1.2095451 1.154815 1.2188412 1.2014978 1.2393326 1.19084
1.2582363 1.1518466 1.2307012 1.1865422 1.2706262 1.1375386 1.1240313 1.2774926
00000000: 1f87 993f 424a 9c3f 4c25 9f3f 274a 983f
00000010: 9102 953f dba6 a63f c8d5 9c3f 35ea 8c3f
00000020: 9cc9 9b3f 682a 923f 0c7b 903f e6d5 903f
00000030: 4051 983f 7011 a33f 46d1 9b3f b129 993f
00000040: 0913 993f d936 953f 60d2 9a3f fad0 933f
00000050: fd02 9c3f aeca 993f 73a2 9e3f 726d 983f
00000060: e30d a13f b66f 933f 9e87 9d3f 9de0 973f
00000070: e1a3 a23f dd9a 913f 42e0 8f3f e184 a33f

bias f4 [32]
-0.5132765 -0.6468513 -0.39794326 -0.42406774 -0.44762588 -0.6588991 -0.42221332 -0.515039
-0.46831673 -0.4588277 -0.46819317 -0.42280233 -0.52395463 -0.557247 -0.5863848 -0.45977
-0.49121517 -0.50895625 -0.48374814 -0.56151724 -0.5107189 -0.4695458 -0.5697056 -0.5123
-0.42798054 -0.4972862 -0.47216186 -0.5100283 -0.5561826 -0.42509067 -0.4561495 -0.5132831
00000000: 1766 03bf 0c98 25bf 38bf cbbe 681f d9be
00000010: 382f e5be 9dad 28bf 582c d8be 99d9 03bf
00000020: 36c7 efbe 77eb eabe 04b7 efbe 8c79 d8be
00000030: e421 06bf bda7 0ebf 501d 16bf f966 ebbe
00000040: 8e80 fbbe f54a 02bf d6ad f7be 98bf 0fbf
00000050: 79be 02bf 4f68 f0be 3ad8 11bf 1826 03bf
00000060: 4420 dbbe 4c9c febe 33bf f1be 3791 02bf
00000070: fc61 0ebf 7ca5 d9be 6d8c e9be 8566 03bf

running_mean f4 [32]
-1.305031 -1.1518822 -1.6851077 -0.5226653 -1.4861101 -1.4485587 -0.94528365 -0.98440385
-0.34938517 -0.043491587 0.11954007 -0.7902516 -0.4149417 -2.0189981 -0.8276344 -0.39679268
0.32332247 -0.20925449 -0.48846257 -0.37161097 -1.2052875 -0.6809169 -0.78126895 -0.85463595
-1.9670434 -0.46963534 -0.35185513 -0.7203567 -1.6403133 -0.9235583 -0.5626151 -0.40173113
00000000: 410b a7bf e070 93bf 9cb1 d7bf 65cd 05bf
00000010: db38 bebf 5f6a b9bf 1cfe 71bf e401 7cbf
00000020: 9de2 b2be 3c24 32bd 6dd1 f43d ee4d 4abf
00000030: 3d73 d4be 4437 01c0 d9df 53bf 6928 cbbe
00000040: 868a a53e cf46 56be c417 fabe cb43 bebe
00000050: dc46 9abf 9250 2ebf 3e01 48bf 6cc9 5abf
00000060: 14c8 fbbf 0b74 f0be 5b26 b4be 4c69 38bf
00000070: c9f5 d1bf 516e 6cbf 8b07 10bf b4af cdbe

running_var f4 [32]
3.139118 2.0470035 2.942071 3.3535655 2.1282935 2.8787742 2.6673694 1.7585653
3.4649546 2.2839415 1.9459087 3.1125119 2.0295186 2.5262618 1.8633889 1.5947468
2.6503596 1.5930717 2.7529488 1.344338 3.4636595 2.8709362 1.3598902 1.8474766
3.272305 3.6481848 2.6560369 2.5040908 2.3771653 1.7973409 2.3101592 2.984483
00000000: 4fe7 4840 1b02 0340 e44a 3c40 d1a0 5640
00000010: f635 0840 d63d 3840 2eb6 2a40 ab18 e13f
00000020: d1c1 5d40 192c 1240 8913 f93f 6533 4740
00000030: a2e3 0140 46ae 2140 8783 ee3f aa20 cc3f
00000040: 7e9f 2940 c6e9 cb3f 5030 3040 4513 ac3f
00000050: 99ac 5d40 6bbd 3740 e210 ae3f 1d7a ec3f
00000060: 726d 5140 dc7b 6940 82fc 2940 0643 2040
00000070: 7a23 1840 440f e63f a6d9 1340 c501 3f40

weight f4 [10, 1568]
0.037270837 -0.029059857 0.032766413 0.06356939 -0.040479623 -0.0795771 -0.22491239 0.09329648
0.051851597 0.029061837 -0.041830834 0.04487218 -0.031367883 0.06305132 0.013925248 0.049946774
0.07375659 0.07886456 0.010495634 0.15411352 0.14777029 0.10549371 0.08987574 0.030718729
-0.12650134 -0.04785502 -0.12007934 0.028182412 0.10561646 0.12499288 -0.038233466 -0.15839115
-0.019376727 -0.17977305 0.107183576 -0.3797959 0.028555328 -0.09399318 0.045525413 -0.09396618
0.118874945 0.075799055 -0.072699204 0.07421812 0.018627109 -0.022884063 -0.041359138 0.014869504
-0.09867329 0.015591989 0.14196444 0.09960627 -0.061350502 0.00359683 0.108599365 -0.022406764
-0.1376777 0.047917668 0.06741848 0.06695527 0.014291989 -0.06938708 0.06443648 -0.014542037
-0.01151157 -0.13369656 0.0344013 0.13721484 -0.015329855 0.04687453 -0.030281367 -0.059485357
0.23199087 -0.24503697 0.11652739 0.2104163 -0.039312195 -0.043074273 -0.039536733 0.0010108487
-0.12630993 -0.13990095 0.008630959 -0.040809404 -0.066092715 0.034639873 -0.03517084 -0.14359365
-0.22306064 -0.095767744 0.008693119 0.07788402 -0.0063262116 -0.07829411 -0.019896582 0.03420175
-0.064204685 -0.082299486 -0.03149913 -0.16615614 -0.025086928 0.10755895 0.009003854 -0.15071735
-0.1381634 -0.05539293 0.23798393 0.10966711 -0.1889995 -0.071998134 0.0025277191 0.047237553
0.09573002 0.26778248 0.15530911 -0.09682119 0.027425203 0.010206764 -0.21518679 0.037416846
0.027255863 -0.092635185 0.008684787 0.13464408 -0.03137067 -0.06602687 -0.010437447 0.08070049
0.038128708 0.08824975 0.06529489 -0.075144276 0.027680656 -0.047598477 -0.095196694 -0.052158665
-0.02219034 -0.011128946 0.1018143 0.11386115 0.0008280009 -0.12084451 0.029851364 -0.0064690895
0.08837178 0.026316877 0.09969372 -0.03965995 -0.07955477 -0.15168415 -0.13413101 0.25247368
0.38755578 -0.28522566 0.11979189 -0.16621228 -0.3451754 -0.023236714 -0.11744256 -0.057867944
-0.04270212 0.08517013 0.07099337 0.17431068 -0.0010934148 0.10560422 -0.10912401 0.21111043
-0.05258469 0.12482029 -0.032285843 0.2925749 0.15449132 -0.041185565 0.028767128 0.16428183
0.050633594 -0.1063397 0.006570936 -0.00168379 -0.11550931 0.10436268 -0.053791218 -0.037295237
-0.10379484 0.07462193 0.013079263 -0.17312169 -0.014003515 -0.1300775 -0.0868481 -0.12347247
-0.026701944 -0.15261215 -0.060538266 -0.044729035 0.035947774 -0.039445966 0.06344479 0.012182056
0.072219245 0.27111155 -0.06889067 -0.0034635903 -0.035194278 0.041062295 0.10058918 0.026995938
-0.0037419652 0.02663609 -0.06305871 0.054213874 0.037984174 0.024918003 0.14332345 -0.023267752
-0.29349416 0.1166554 0.06470106 0.012290196 -0.24423718 -0.17884068 0.13399613 0.09577396
-0.16204657 -0.058436368 0.061889168 -0.15862772 -0.21898179 0.029945375 0.22597957 -0.103835955
0.0023253853 -0.088078655 -0.061439488 0.12836002 -0.084600516 -0.07173793 -0.005117795 0.08084441
0.028553473 -0.0030115177 0.12623571 -0.2683379 -0.04981036 -0.012165694 -0.035607148 -0.07877066
0.03800497 0.2490348 -0.027671799 -0.15404601 -0.0116772195 -0.07035115 -0.098402314 0.08976248
00000000: 4ea9 183d f00e eebc 1336 063d ab30 823d
00000010: f6cd 25bd 52f9 a2bd 6f4f 66be 3a12 bf3d
00000020: 5762 543d 1713 ee3c cf56 2bbd e4cb 373d
00000030: 9c7b 00bd 0d21 813d b926 643c fd94 4c3d
00000040: b20d 973d be83 a13d e1f5 2b3c efcf 1d3e
00000050: 1851 173e 160d d83d c610 b83d d8a5 fb3c
00000060: 9189 01be a003 44bd 28ec f5bd cdde e63c
00000070: 714d d83d 44fc ff3d b29a 1cbd 4a31 22be
00000080: f1bb 9ebc 6d16 38be 1083 db3d 9c74 c2be
00000090: ddec e93c 7f7f c0bd db78 3a3d 5771 c0bd
000000a0: b574 f33d 893c 9b3d 52e3 94bd abff 973d
000000b0: e197 983c 5c77 bbbc 3368 29bd 389f 733c
000000c0: 3915 cabd 8b75 7f3c 205f 113e 5ffe cb3d
000000d0: aa4a 7bbd cbb8 6b3b 5869 de3d 648e b7bc
000000e0: 62fb 0cbe 5145 443d b312 8a3d d81f 893d
000000f0: f228 6a3c d01a 8ebd 46f7 833d b941 6ebc
00000100: 069b 3cbc c0e7 08be 61e8 0c3d 0c82 0c3e
00000110: 122a 7bbc 82ff 3f3d a110 f8bc eba6 73bd
00000120: 048f 6d3e f9ea 7abe eaa5 ee3d 5f77 573e
00000130: d305 21bd a66e 30bd 45f1 21bd 747e 843a
00000140: 6457 01be 3242 0fbe de68 0d3c c327 27bd
00000150: 9e5b 87bd 8ae2 0d3d 4c0f 10bd 370a 13be
00000160: 026a 64be e121 c4bd 956d 0e3c a881 9f3d
00000170: 1c4c cfbb aa58 a0bd 28fe a2bc 2217 0c3d
00000180: bf7d 83bd a28c a8bd 3b05 01bd d624 2abe
00000190: 1a83 cdbc de47 dc3d e784 133c a655 1abe
000001a0: b57a 0dbe b2e3 62bd 0fb2 733e 2699 e03d
000001b0: 1689 41be c273 93bd 17a8 253b 2a7c 413d
000001c0: 1a0e c43d c91a 893e 5a09 1f3e 304a c6bd
000001d0: d2aa e03c 453a 273c ed59 5cbe 6842 193d
000001e0: b047 df3c 84b7 bdbd a34a 0e3c 23e0 093e
000001f0: 887e 00bd 1839 87bd d301 2bbc 4c46 a53d
00000200: d92c 1c3d 49bc b43d 54b9 853d 3ee5 99bd
00000210: 8bc2 e23c 9ff6 42bd 7cf6 c2bd 53a4 55bd
00000220: 84c8 b5bc 2f56 36bc 0484 d03d 0930 e93d
00000230: 330e 593a 547d f7bd d98a f43c a8fa d3bb
00000240: 44fc b43d 7e96 d73c 392c cc3d 7972 22bd
00000250: 9ced a2bd 1753 1bbe a459 09be 3b44 813e
00000260: b66d c63e 1909 92be 7355 f53d 8d33 2abe
00000270: d4ba b0be ec5a bebc ba85 f0bd f006 6dbd
00000280: 6be8 2ebd ad6d ae3d f964 913d 807e 323e
00000290: ea50 8fba 0647 d83d 697c dfbd 552d 583e
000002a0: 0b63 57bd c8a1 ff3d 293e 04bd 61cc 953e
000002b0: f932 1e3e 32b2 28bd 0aa9 eb3c 7f39 283e
000002c0: 2c65 4f3d a1c8 d9bd 0251 d73b 9eb2 dcba
000002d0: 2590 ecbd 1abc d53d 2e54 5cbd e4c2 18bd
000002e0: 6492 d4bd 62d3 983d 684a 563c d046 31be
000002f0: 006f 65bc 0933 05be 6bdd b1bd 22df fcbd
00000300: 09be dabc 5c46 1cbe f9f6 77bd cb35 37bd
00000310: f93d 133d 1892 21bd 58ef 813d 3f97 473c
00000320: afe7 933d 22cf 8a3e 8d16 8dbd 67fd 62bb
00000330: e027 10bd f030 283d b301 ce3d 9626 dd3c
00000340: c23b 75bb ee33 da3c ed24 81bd 5e0f 5e3d
00000350: 4b95 1b3d d720 cc3c 62c3 123e 039c bebc
00000360: de44 96be 07e9 ee3d fd81 843d d15c 493c
00000370: 5019 7abe 0322 37be 4836 093e 2325 c43d
00000380: 89ef 25be f95a 6fbd 7f7f 7d3d 4e6f 22be
00000390: c33c 60be 0150 f53c 3067 673e f2a7 d4bd
000003a0: 7e65 183b 9562 b4bd f9a7 7bbd cf70 033e
000003b0: 0943 adbd 56eb 92bd 2db3 a7bb c191 a53d
000003c0: f9e8 e93c e25c 45bb ef43 013e 9663 89be
000003d0: f305 4cbd 9e52 47bc cdd8 11bd 8352 a1bd
000003e0: 19ab 1b3d fb02 7f3e f8af e2bc 3dbe 1dbe
000003f0: cf51 3fbc 4414 90bd 2787 c9bd 64d5 b73d

bias f4 [10]
-0.0065654432 -0.014189849 0.015451505 0.03451398 0.012201297 -0.057158343 0.026681181 0.041639894
-0.05014702 -0.005714567
00000000: ee22 d7bb 8a7c 68bc 4f28 7d3c 885e 0d3d
00000010: f3e7 473c de1e 6abd 7e92 da3c 988e 2a3d
00000020: f666 4dbd 4341 bbbb
