model.pth (torch, 124207 bytes, 14 tensors)

weight f4 [16, 1, 5, 5]
00000000: ac66 b4bd b3ef 41be c223 693b ec53 fe3d
00000010: 69aa 2abe fbd5 0ebe 854a 39be 7d1c 043d
00000020: ca37 2f3d 1436 703d ff71 d73d 7324 c5bd
00000030: 83c2 493d 5138 83bd 0a3d 8bbd 5d02 12be
00000040: 8125 36be ac3a 053e ba06 a6bb f50c 0b3e
00000050: 1dfb 533e abe4 28be 2994 cf3d 665d 3f3e
00000060: 3061 2abe b64f 2b3d a949 ab3d f30c 113e
00000070: bd0c 9a3c 9534 ce3d 9337 e4bc a352 46be
00000080: cfb4 e9bd 1b6e 993d 9543 273d ae7e 3ebe
00000090: 15de ce3d bcc1 9238 638f cfbb 2c71 eebd
000000a0: 57c8 4e3c f2b7 e2bd f759 d33d de84 b8bd
000000b0: 7bd1 063e 3ed6 173e f296 1d3e 5b7a 31be
000000c0: 6949 cabd 31c3 71be fab3 54be 12f0 17be
000000d0: 976d 133d 9306 eebd 71fa 023d 1606 0b3e
000000e0: d4ee 3f3e 2103 423d ac96 233e b977 293e
000000f0: 98dd d53c 051d 9cbd e509 e83c 4744 98bd
00000100: ffa3 e8bd 1ff8 da3d eb88 013e 56c3 55bc
00000110: 4c44 83bd 4bef ca3c d0c1 b0bd c848 17be
00000120: 9b5c a0bd 5323 45bc a3a7 bebd d8bb c8bd
00000130: d015 d5bd ff2a 003e e652 503e 45dd 04be
00000140: 0e03 4cbe 86b6 763a 1b39 8cbd c194 bd3d
00000150: e9f0 9ebc 63b1 18be 8f21 4ebe a247 11bd
00000160: db06 13be bd93 b73d 1b5e 9d3d ec95 0dbe
00000170: 684c 8f3c 3ee9 3abe f5a1 83bd 2928 68bd
00000180: fa98 7dbd 93d1 513d af55 86bd deb4 2d3d
00000190: a5ea 7d3d 4a1e 3d3c d978 1d3e e14e 633e
000001a0: a498 d83b f19b 2a3e 45ec 343e 4946 193e
000001b0: e5bf 413c a71b 1cbd f021 1fbc 516f 8f3d
000001c0: 7932 8dbd 4fdd 44be b532 9b3d 5368 043d
000001d0: b479 0dbc aa69 e63d 8597 a43d 0616 013e
000001e0: 661f 2c3e bfa9 c7bc 13bb 3ebe d7c9 e6bd
000001f0: 19a6 08be 7ef7 2b3e 5cbf 4cbe 9662 b83d
00000200: 6b5b e83c dca2 40be e9cc b6bd 5f7d 903d
00000210: 2be4 ea3d 3fac 66bb 2e87 46be 745c 03be
00000220: a14b 103e 531f c13b 4073 293e 7a8c c9bc
00000230: 64b6 343d edbe cf3d 41ae e13d 938f 44be
00000240: 8964 4abd a1da c6bd 0c50 ebbb 5a57 353e
00000250: d1f6 e6bc 88f9 78bd e975 d53d 047f 6c3d
00000260: 519a 98bb 6c68 c43d ab54 ea3d 0b94 01be
00000270: 6e64 5dbe c992 4fbd 82f5 65bd 39b9 673c
00000280: 1aad 8e3d 6da8 183e d449 08bd ef31 35be
00000290: 80ce 5abe 3e40 bc3d 5d4b 103e fb9a d23d
000002a0: ed07 353c 8b6f 68be eec8 243d 88a3 2a3e
000002b0: 641b 4fbd 7e3a 123e 90ab bbbd a8b4 c83c
000002c0: e91c 223e 19f5 1e3e 82fd b4bd 1697 21be
000002d0: c689 04be 0b55 0f3e 4277 96bd 255e 02be
000002e0: a9d2 40bd 9314 3f3e 2ad8 163d 0b3f 87bd
000002f0: 11d6 663d c13d 8abd b018 f5bc a7da c4bd
00000300: 5b8a f4bd 8d05 e43d f49a f23c e629 56be
00000310: ef5d 31be 14f1 f53d a292 043d 9be0 eb3d
00000320: 1606 c73d f1c7 bf3d c289 c63d cd05 3c3e
00000330: 7cc6 44bd 937b a6bc 7943 843d 980d 7b3d
00000340: 1b6a 733d 00dd 903d c18f d63d 62f6 1e3e
00000350: b4d3 12be 45f0 3e3e b88f e53d 847b 69be
00000360: fe99 093e e3f7 93bc 1d3f c93b ad84 d63d
00000370: 9263 6d3b 3a22 29be 4a2b 7bbd 9f7c 06be
00000380: ab5b 883d be9b ff3c df9b a03d ada6 4d3e
00000390: 3309 503e 92ee 063e c9a1 263e df5a 013e
000003a0: 402e 9b3c c16e 07be e460 533c 1427 813d
000003b0: 16f5 eebd 7c5f 033e 952d ea3d 7cbf 4ebe
000003c0: 8dff 69be 56ff 64bc 1d11 0abe 419c 22be
000003d0: 7dbf 2a3e bfe1 b0bd b2ea fb3d fdd2 1bbc
000003e0: d4f2 223e 47ac 07bd 1d7b f03d a269 083d
000003f0: 9c21 b03d 6ccf 903c 07eb ea3c d358 45bd
-0.088086456 -0.18939094 0.0035574292 0.124183506 -0.16666569 -0.13948815 -0.18094833 0.03225373
0.042777814 0.058645323 0.1051979 -0.09626093 0.049257766 -0.06407226 -0.06798752 -0.14258714
-0.17787744 0.13010663 -0.00506672 0.13579161 0.20701261 -0.1649348 0.10135681 0.18687972
-0.16638637 0.041824065 0.08363659 0.14165096 0.018804902 0.10068623 -0.027858531 -0.19367461
-0.114114396 0.07491704 0.040835936 -0.18603012 0.101009525 6.997908e-05 -0.0063342317 -0.116426796
0.012621007 -0.11070241 0.10319894 -0.090097174 0.13165848 0.1482782 0.15389612 -0.17331831
-0.09877283 -0.23609616 -0.2077178 -0.14837673 0.035993185 -0.11622348 0.03197712 0.1357654
0.1874345 0.047366265 0.15975446 0.16549577 0.02610664 -0.076227225 0.02832503 -0.07434898
-0.11359405 0.106918566 0.12649886 -0.01304706 -0.06409511 0.024772307 -0.08630717 -0.14773858
-0.07830163 -0.012032348 -0.09309318 -0.09801453 -0.10404551 0.12516402 0.20344123 -0.12975033
-0.1992304 0.00094113534 -0.068468295 0.09256888 -0.019401984 -0.14911418 -0.20129989 -0.035468705
-0.14358084 0.08963726 0.07683965 -0.13826722 0.017492488 -0.18253037 -0.06427375 -0.056678925
-0.061913468 0.051225256 -0.065593116 0.042408817 0.061991353 0.011542866 0.15378131 0.22198059
0.006609993 0.1666105 0.17668255 0.14968218 0.011825536 -0.03811231 -0.009712681 0.07003654
-0.068943925 -0.19225048 0.07578031 0.032326054 -0.008634973 0.112506226 0.080367126 0.12606058
0.16808853 -0.024372933 -0.1862605 -0.11268967 -0.13344611 0.1679363 -0.19994873 0.09003179
0.028363904 -0.18812126 -0.08925802 0.07055163 0.11469301 -0.0035197882 -0.19387504 -0.12828237
0.1409135 0.0058936267 0.1654787 -0.024603117 0.044119254 0.10143838 0.110195644 -0.19195394
-0.049412284 -0.09709669 -0.007181173 0.17709103 -0.028193863 -0.060784847 0.1042288 0.05773832
-0.004657068 0.095902294 0.114419304 -0.1265413 -0.21620342 -0.050677095 -0.056142338 0.014143282
0.0696661 0.14908 -0.033273533 -0.1769483 -0.21367836 0.09191941 0.14091249 0.102834664
0.011049253 -0.226988 0.040230684 0.16663945 -0.05056323 0.14280125 -0.09163582 0.024500206
0.15831341 0.15523185 -0.08837415 -0.15780291 -0.12943181 0.13997285 -0.073469654 -0.12731226
-0.0470759 0.18660192 0.036827244 -0.06603821 0.056356493 -0.0675006 -0.029918998 -0.09612017
-0.11940452 0.11133871 0.029614903 -0.2091442 -0.17320989 0.12008873 0.032366402 0.115174495
0.09717958 0.09364308 0.09694244 0.18361588 -0.048040852 -0.020322597 0.06458182 0.06129226
0.059427362 0.070734024 0.10476638 0.15523675 -0.14338571 0.18646343 0.11209053 -0.22801024
0.1343765 -0.018062538 0.006141557 0.10474525 0.0036222679 -0.16516963 -0.06132058 -0.13133477
0.06658109 0.031202193 0.0784223 0.20083113 0.20316009 0.13176945 0.16272654 0.12632321
0.018942952 -0.13225843 0.0129015185 0.06306282 -0.1166784 0.12829393 0.11434475 -0.20190233
-0.22851391 -0.013976892 -0.1348309 -0.15879919 0.1667461 -0.08636808 0.12300624 -0.009510753
0.15912944 -0.03312328 0.11742232 0.033303864 0.086001605 0.017677031 0.028676523 -0.048180413

bias f4 [16]
00000000: 2b49 913d daed ad3b 085c d33d df35 4ebe
00000010: 0472 15be 99af ee3d ea9a 96bd d232 d7bd
00000020: e2e2 173e 2083 7cbd 1b7d 113e 1150 2b3e
00000030: 6c20 533d 3919 26be a149 97bc a6cc 5f3d
0.07094034 0.005307895 0.10320288 -0.20137738 -0.14594275 0.11654586 -0.07353766 -0.1050774
0.14832643 -0.061648488 0.1420788 0.16729762 0.05154459 -0.16220559 -0.018467726 0.054638527

weight f4 [16]
00000000: f512 843f 3172 823f d2b7 7d3f d5cb 823f
00000010: 196a 6e3f c2cf 803f 2857 7b3f 5323 893f
00000020: 46b9 5d3f 5cd0 6c3f 4404 833f d518 853f
00000030: 81e6 823f 7a48 823f d224 843f 8a8c 813f
1.0318285 1.0191098 0.9910861 1.0218455 0.9313064 1.0063403 0.98179865 1.0713905
0.8661083 0.9250543 1.0235677 1.0398203 1.0226594 1.0178368 1.0323737 1.0121014

bias f4 [16]
00000000: 6d2b ebbd a4b5 9fbd c5ae 77bd 7308 02be
00000010: d681 80bd f4b1 8e3d f3cd 80bb 848c fbbc
00000020: 2d0a 2bbd 0bdc 81bc 9ff6 aabc 2fd5 00bd
00000030: 22c4 c4bc 83c8 19be 9fef 2cbd facc c3bc
-0.11482892 -0.07798317 -0.060469408 -0.12698536 -0.06274764 0.069675356 -0.003930801 -0.030706652
-0.04175775 -0.015851995 -0.020869551 -0.031453308 -0.024019305 -0.15017895 -0.042220708 -0.023901451

running_mean f4 [16]
00000000: f130 05c2 2759 69c1 ca9f f4c0 1114 90c2
00000010: 2589 6c42 b8d7 13bd 8253 b53f 403a 46c1
00000020: bc1a 5f42 6301 1542 706a be40 f24c 62c0
00000030: 22c7 42c0 c0af ccc2 1334 3f3f 3ea3 1fc1
-33.297794 -14.584266 -7.6445055 -72.03919 59.13393 -0.036094397 1.416611 -12.389221
55.776108 37.251354 5.950493 -3.5359464 -3.043404 -102.34326 0.74688834 -9.977354

running_var f4 [16]
00000000: bd6c 1d45 7228 4244 1979 0c44 63f9 ca45
00000010: 0c7a a345 2bd8 8844 4364 b944 801b 2b44
00000020: ba04 9145 72dc 2345 67cc 0544 f867 2b45
00000030: 4ac6 bf43 0503 4946 5f2d 1144 268f 7344
2518.7961 776.63196 561.89215 6495.1733 5231.256 1094.7552 1483.1332 684.4297
4640.591 2621.7778 535.1938 2742.498 383.54913 12864.755 580.7089 974.2367

weight f4 [32, 16, 5, 5]
00000000: df3a 69bd 3d62 85bc a98b c03c d038 2bbd
00000010: 016a 4ebd 0ad9 cebc e1bc 19bc 3c32 703d
00000020: 146f 16bc dcd0 42bd cef6 483a df2c 303c
00000030: ac95 b0bc 4b16 a9bb fb8a 8bbb c849 71bd
00000040: 0a71 df3c ce89 debb afee 5cbd aefa 16bd
00000050: 4aae 033b e3a4 793d 03fd 02bd dd78 f83c
00000060: 2b20 ec3c 478e 0e3d 086a 8d3b b61a c73a
00000070: cb8b 24bd 3e61 f13c 8739 053d 528a f13b
00000080: 4e76 b83c 6515 303c 1b7f a23d 61f4 e63b
00000090: a235 2ebd 8c79 d9bc cc95 21bd d244 363c
000000a0: 5c09 adbc 4824 43bd aa2d 3f3d bb7a ed3a
000000b0: 0e42 babb fe4e 2b3c 2770 e33c cedc 923d
000000c0: 3c00 5e3c 6c7b 633b 85eb 013d bf71 213d
000000d0: 2dc1 603c a7bf f93c aec3 eabc 5051 16bc
000000e0: c6bb 43bd e242 c1ba 6df6 493c 0347 88bc
000000f0: c556 5abd 426d 88bc b8ff 713d 26a8 8bbc
00000100: 4818 9e3b d9fc 3abd 9dee 41bd ca39 5b3a
00000110: 53af 55bd 3b9c bb3c f672 baba 2e75 203d
00000120: a137 533c 3c81 24bd 83ef 95bd 89c0 47bc
00000130: e153 49bc cabd b23c 08e8 503d d821 0ebd
00000140: 6c6f 00bd e7fd 103d 055e d23c 66f2 fe3b
00000150: eb33 243d 424c afbc 8bc3 b83c 7310 573d
00000160: c93f 443c 015b 02bd e28f 6f3c 69e0 473d
00000170: 875e 29bc c1cb 16bd 464b 6b3c 877a dcbb
00000180: 7d2b 5a3c e5b9 97ba 6f04 bd3c 71d9 433d
00000190: 7902 b9bc 2cab 293d 236a 373d 36cb 893c
000001a0: 3c9f ddbc 6c4b 21bd 0658 ab3c 6355 293c
000001b0: 731c 1dbc 12c8 c73c 06a4 603a d460 ea3c
000001c0: 05a5 2e3d 7450 433d d1be aa3b 7a33 41bd
000001d0: 17fb 2c3d 8396 a9bc 50f3 093d 180b 81bc
000001e0: 608b 323b ef8c 27bd c1f8 1fbd 5967 a6bc
000001f0: e322 9dbc 988a 5ebd 7652 093d 0466 63bd
00000200: 81b2 0ebd 83de 8bbb 1091 163b f6a6 5bbc
00000210: 17e9 a63c 31c5 6abb a01d 873c fac6 08bd
00000220: 44b2 d4bc 2da8 6d3d 1def 343d 42db bb3d
00000230: 817b 8e3c 4778 b83c 47c7 013d 5c3c 833c
00000240: 453e b83d 38ec 6d3c d357 953c efa0 893c
00000250: c90c a7bc 69d7 a83d 6004 83bc ddaa 4bbc
00000260: 510a c43c 74ab 07bc 1ca1 d6bc ff7c b8bc
00000270: e2bd 3dbd 0eb7 debc d271 b13c e902 f1bb
00000280: 69b7 60bd 6510 00bd 0acf 18bd 9504 9fbb
00000290: 5c98 f93b 446b 94bc 9141 223d 395b 323d
000002a0: 769a 3bbd c9a6 ebbb d22f c63b a6b8 e7bc
000002b0: ce02 903d 1b0b 6ebd 9c53 1ebd 505e 4c3d
000002c0: 5363 f73c 8987 c13c 6e4c 1b3c e405 06bd
000002d0: 6d65 15bc d67f e0bb 0de9 673d b077 37bd
000002e0: 31e5 b9bb 240c 583d b60a 383d 0cda b2bd
000002f0: 8b5c 583d da57 c5bb 4b85 64bc 7f29 08bd
00000300: d027 703d ef98 71bc 4edb d6bc 767d c13c
00000310: 4ca9 9fbc e03b febb bdd3 3f3d 7974 963c
00000320: a7f5 edbb 2db4 bbbc 6529 36bd 8099 1a3d
00000330: f1b4 b23c c76d 44bc 9c60 223d c06c fbbc
00000340: 5d10 bb3c f259 1d3d 3dc7 99bb b6db 41bd
00000350: 91a8 58bc 8817 c53c 2796 8b3c 62b7 28bc
00000360: 114f 16bd c142 ddbc 72a5 723c 185d 4f3c
00000370: 7b1f 753c 4ecb 7ebc 46ea 193d a2a0 523c
00000380: 5f9c 3bbc bdde 1ebb e2f7 583d 08d8 80bc
00000390: f06b 413c 6959 ff3c ec41 273d c7c8 f8bc
000003a0: 9e16 67bc 4fc9 b73c e565 92bc b767 debb
000003b0: 1659 c5bc dee8 78bd ec49 babb 1019 323d
000003c0: 13cc d1bc 76ec c0bc c48e 373d 1d17 b93c
000003d0: 0ed5 ed3a b5fb 18bd 7e48 d4bc 2fa1 07bd
000003e0: 22e4 00bc 0d3b 64bc ceb6 713d 3e53 493d
000003f0: 3908 0c3d a4eb 383c 8ade febc 76c7 e3bc
-0.05694091 -0.016282195 0.023504095 -0.041802227 -0.050394062 -0.025249977 -0.009383411 0.058641657
-0.0091817565 -0.047562465 0.00076661713 0.010752886 -0.021555744 -0.005160128 -0.004258511 -0.058908254
0.02727558 -0.00679133 -0.053938564 -0.03686016 0.0020092898 0.060948264 -0.031979572 0.03033107
0.028823933 0.034803655 0.0043156184 0.0015190456 -0.04017238 0.029465314 0.032525565 0.0073712254
0.02251735 0.010747288 0.079344 0.007048175 -0.042531617 -0.026547216 -0.039449498 0.0111248065
-0.021122627 -0.047642022 0.046674408 0.0018118242 -0.005684144 0.010455845 0.02776344 0.071710214
0.013549861 0.0034711016 0.03171875 0.039415117 0.013717932 0.030486895 -0.02865776 -0.00917466
-0.047786497 -0.0014744664 0.012326819 -0.016635424 -0.053305406 -0.01665366 0.059081763 -0.017047953
0.004824672 -0.04565129 -0.0473467 0.0008362798 -0.052169155 0.022901645 -0.0014224935 0.03917425
0.012891681 -0.04016231 -0.07321074 -0.0121919 -0.012288065 0.021819014 0.051002532 -0.034700245
-0.03135626 0.03539839 0.025679598 0.007780361 0.040088575 -0.021398667 0.02255418 0.05250592
0.011978098 -0.03182507 0.014621707 0.048798 -0.0103374785 -0.03681541 0.014361208 -0.0067284736
0.0133160325 -0.0011575787 0.023073403 0.04781479 -0.022584187 0.041423008 0.044778954 0.016820531
-0.027053468 -0.03937857 0.020915996 0.010335299 -0.009589302 0.024387393 0.0008569363 0.028610624
0.042637844 0.047684148 0.0052107354 -0.047168233 0.042231645 -0.020701652 0.033679307 -0.01575236
0.0027243719 -0.04090589 -0.03905559 -0.020312952 -0.019181674 -0.054331392 0.033525907 -0.05551721
-0.034838203 -0.004268469 0.0022974648 -0.013406506 0.020374818 -0.0035823102 0.016493618 -0.033392884
-0.02596391 0.058021713 0.04417335 0.091726795 0.017392876 0.02251829 0.031684186 0.016019993
0.08996252 0.014521651 0.018230354 0.016800372 -0.020391839 0.08244211 -0.015993297 -0.012430874
0.0239307 -0.008280624 -0.02619987 -0.02252054 -0.046323664 -0.027186897 0.021660719 -0.0073550832
-0.054862414 -0.031265635 -0.037306823 -0.004852841 0.0076170396 -0.018117554 0.03961331 0.043544028
-0.045801602 -0.007191513 0.006048181 -0.02828629 0.07031785 -0.05811606 -0.038653955 0.04989463
0.030198729 0.023624199 0.0094786715 -0.03272046 -0.00911842 -0.0068511767 0.05661874 -0.044791877
-0.0056730737 0.052745953 0.04493209 -0.087329954 0.05282263 -0.0060224356 -0.013947795 -0.0332427
0.05863172 -0.014745935 -0.02622762 0.023619395 -0.019489907 -0.0077586025 0.04683279 0.018366085
-0.00726195 -0.022913063 -0.04447307 0.037744045 0.021814795 -0.011989064 0.039642915 -0.030691504
0.022834951 0.038415857 -0.0046929405 -0.047328673 -0.013223783 0.024059072 0.017039372 -0.010297628
-0.036696497 -0.02700937 0.014809953 0.012656473 0.014961119 -0.015551401 0.037576936 0.012855681
-0.011450856 -0.002424165 0.052970774 -0.015728012 0.011805519 0.031170564 0.040834352 -0.030369176
-0.014104513 0.022434859 -0.017870853 -0.006787266 -0.024090331 -0.060768954 -0.0056850817 0.043480933
-0.025610005 -0.023550253 0.044813886 0.02259403 0.001814516 -0.03734942 -0.025913473 -0.0331127
-0.007866891 -0.013930094 0.059012227 0.04915165 0.03418753 0.01128665 -0.031111974 -0.027805071

bias f4 [32]
00000000: f882 803d d37f 343d bfa8 cf3c 2282 7cbd
00000010: dce0 033d af8d 82bb a53f da3c a219 d7bb
00000020: e78b 10bd 3d33 5cbc 9e22 23bd 55f2 ab3b
00000030: e119 023c a7ab 6e3c 3324 cc3c aa53 31bb
00000040: 23c9 afbb 59ed 8ebc 2871 cebc 5d04 1cbd
00000050: b80c 2e3d 8252 ddbc 5dd6 683d 4a3a cdbc
00000060: 4e73 cb3c f2fa c4bc 5788 6abd 0065 3d3d
00000070: e9e3 823d a202 5cbc 4287 5abc 4522 493d
0.0627498 0.044067215 0.02534902 -0.06164754 0.032196864 -0.003984175 0.026641676 -0.006564335
-0.03528967 -0.0134399505 -0.039827935 0.005247394 0.00794074 0.014567292 0.024919605 -0.0027057924
-0.0053645535 -0.01744716 -0.025200441 -0.0380901 0.0424926 -0.027016882 0.056845058 -0.025052208
0.024835255 -0.024045441 -0.05725893 0.0462389 0.06391127 -0.013428362 -0.013337912 0.049104948

weight f4 [32]
00000000: d1d7 853f 90fe 853f f12a 893f 2633 863f
00000010: 6f24 863f 8cee 833f d639 893f 49e6 833f
00000020: a08c 873f b935 833f 0a9e 853f c147 823f
00000030: 869b 823f 8ed3 8c3f 73de 893f 5766 843f
00000040: e281 843f 2006 863f f5ff 7f3f f9ce 863f
00000050: f5dc 873f f4c8 843f 2971 863f 4d1d 863f
00000060: c084 893f 2141 843f d5d3 7e3f 8a6e 893f
00000070: 2859 8b3f 8b62 883f fd86 843f a473 843f
1.0456487 1.0468311 1.071623 1.0484359 1.0479869 1.0307174 1.0720775 1.0304652
1.058979 1.025077 1.0438855 1.0178148 1.0203712 1.1002061 1.0771011 1.0343732
1.0352137 1.0470619 0.99999934 1.0531913 1.0614306 1.0373826 1.0503284 1.0477692
1.0743637 1.0332376 0.9954198 1.0736859 1.0886583 1.0655073 1.0353695 1.0347791

bias f4 [32]
00000000: 80b5 67bd ec20 35bd 4089 cbbc ac28 b5bc
00000010: 89d7 d8bc 56c9 07bd 8527 22bc bb38 eabc
00000020: 68d6 e3bc 26a0 80bd 6920 29bc d7db c5bc
00000030: 6a39 6bbd 2cdc 83bc 41c2 05bd 7479 6fbd
00000040: c1ac 81bc abf8 3abd d240 29bd e24d 61bd
00000050: 052b 5abd b84c 59bd f8c2 01bd 9c3b e0bc
00000060: 66a4 38bd 1744 73bd 29ea 72bd d581 7abd
00000070: 1568 5bbd 78e5 2abd a5c4 10bd f050 43bd
-0.056569576 -0.04422085 -0.02484572 -0.02211412 -0.026469963 -0.033150993 -0.0098971175 -0.028591504
-0.027812198 -0.06280546 -0.010322669 -0.02415268 -0.0574278 -0.016096197 -0.032655958 -0.058465436
-0.015829446 -0.045647305 -0.041321583 -0.055005915 -0.053263683 -0.05305168 -0.031680077 -0.027372174
-0.045078658 -0.059391107 -0.059305344 -0.061158974 -0.053566057 -0.041722745 -0.035343785 -0.04768461

running_mean f4 [32]
00000000: fa18 3a3d 3261 823e afae 12be 07d4 01bf
00000010: a182 4c3e e1ba 29bf 3ac5 5dbe 2d81 b0be
00000020: 0c40 0b3f 1809 a3be 6e2b 8ebe c0c9 74bf
00000030: ed64 463d 0d06 49be b686 a5be a63e ba3d
00000040: f13a 703e c862 be3e 1172 31bf 9bfd dc3e
00000050: 3b16 4bbd 4548 603e 6178 af3e f048 0ac0
00000060: 9c36 8ebe 4e05 4abe ec3c 30bf 46e5 af3e
00000070: b49f f4be aa96 013d f65a 75bf 25df acbd
0.045433976 0.2546478 -0.14324449 -0.50714153 0.19971706 -0.6630078 -0.21657267 -0.34473553
0.543946 -0.31842875 -0.2776751 -0.95620346 0.048436094 -0.19631214 -0.3232934 0.090939805
0.23459984 0.3718474 -0.69314677 0.43162236 -0.049581748 0.21902569 0.3427153 -2.1607018
-0.2777604 -0.19728586 -0.6884296 0.3435461 -0.47778094 0.031637825 -0.9584192 -0.08440999

running_var f4 [32]
00000000: 0ff0 db3e 5cbf c83e 1f77 883e 391d 143f
00000010: 08bd 8e3e 322f df3e db2a 193f 1abd ab3e
00000020: 0ded e93e c6b5 213f 2207 d03e 6bf9 c63e
00000030: 8039 f83e 2558 e03e 7239 d83e 6cba e03e
00000040: 0887 383f 9908 513f 4d00 433f 8a95 353f
00000050: 835d 193f cb31 413f 5e53 ea3e c73c dc3f
00000060: 8f9f 953e a3cf 973e 594e 6c3e 41f4 253f
00000070: 4058 e13e 1f11 363f 94c2 063f 4289 013f
0.42956588 0.39208496 0.26653382 0.5785709 0.27878594 0.43590695 0.5983102 0.3354271
0.45688668 0.6316799 0.40630442 0.38862166 0.4848137 0.4381725 0.42231327 0.4389223
0.7208104 0.81653744 0.76172334 0.70931304 0.5990831 0.75466603 0.4576673 1.7206048
0.29223296 0.29650602 0.23076762 0.64825827 0.44012642 0.71119875 0.5264065 0.50600064

weight f4 [10, 1568]
00000000: 50b4 b7bc e665 853b 2c54 303c 7f4b 84bc
00000010: 20eb 2aba 44d0 5e3d b4a0 b5bc 8880 d1b7
00000020: 95e3 7bbc 28a4 513c b42c f2ba 7377 5b3c
00000030: b6cb 7dbc d7a5 d1bc 746e 14ba 21f9 0e3d
00000040: fe8f b6bb 6855 dd3a 284a 383d f54e 4ebc
00000050: b6c4 08bc d241 39bc 7748 01bb 416e 5a3c
00000060: 7c5f 90ba 748b 803b 5b43 d7bb 70b1 98bc
00000070: 05c5 ebbc 8745 7b3c 3a07 d73c 9c4e 04bd
00000080: 0a06 0ebd 5619 dcbb 7bd8 5bbd a2de 013a
00000090: 94fe 0ebd f1e0 4abc e8d1 e4bc d6e5 2dbc
000000a0: b8d8 02bc c6b9 2fbd d340 9dbb 935d d3bb
000000b0: 39ab 25bc 978a 2abc abd5 173c a1d2 b6bc
000000c0: 63ce 0bbd a6cc a93c 3c36 14bc 20ac 203d
000000d0: b844 163d 9c3f 1dbd 5f1a 7abc 68ed 09b8
000000e0: 41ae 15bd 81d7 e63b 4728 373c 5a9f 1f3d
000000f0: e500 b8bc b5e8 033c f9e8 9abc cad1 133c
00000100: 8a25 06bc 980d 873c c3ad ca3c 7850 a23c
00000110: 66bd 22bb b4ac 8fbc 357f c63c b3d7 3bbc
00000120: 7669 3fbb 7292 a23c da3d 0a3d 7685 d63b
00000130: 3980 fcbb ea62 debc 588b c03b 4ac9 02bc
00000140: e8b1 c43a 4095 bc3b 74b4 c83c 16fc 91bb
00000150: d58f dabb 6643 17bd 7177 4cbc 6003 153c
00000160: 2759 9bbc 7260 79bc 6056 f03c 0978 05bd
00000170: 8031 6abb 6965 a7bc 9277 d0bc e52e 02bb
00000180: cc7f 37bd aa4d 053c 479a 28bc 8a18 f2bb
00000190: 00f4 7ebc 4857 19bd 19c1 943d e879 c63b
000001a0: 9ff8 903c 92ad 9f3c 5aab 35bd 4ac7 03bd
000001b0: d7e3 423c 2ef1 c93c 68ee 173c d0f3 7e3c
000001c0: 98ae 3e3c 75fb 933b 69d9 36bd 19bc f1bc
000001d0: 863f 0f3d efd2 203c 0053 cdbd f7c2 843c
000001e0: 49b8 223d 5096 7f3c c7b2 ce3c b995 023d
000001f0: 9814 eb3c 4e86 e5bc d97f 813c 68ce 4fbc
00000200: 5f22 9b3c 0708 c3bc c1a5 743c b735 e13c
00000210: b4af 3bbd 4929 adbc a7ac 03bd 94bc 05bd
00000220: 0884 d43c 97de 5bbc d641 92bd 1094 47bd
00000230: 4a96 373b 74f0 8f3c 7143 8ebc b170 ae3b
00000240: da4f 29bd 36b5 13bd 1b51 8e3c 4d9e a9bb
00000250: f936 18bb 7b02 653c f09a b9bc a067 213d
00000260: 89ce 87bc f769 49bd 07fe 0d3d d277 1a3d
00000270: dabc 6dbc b872 d2bb eb9c 1f3d 8d5a 8e3c
00000280: f77f 85bb 3178 c93c 9b5a fd3c c983 e73c
00000290: 485c fa3c 5b81 c93a a8f0 383c e123 80bd
000002a0: e829 08bd 0045 e43c 1289 a4bb df5c 94bb
000002b0: 1e7a eabc 412c 253b 0d62 b5bd 3b60 203c
000002c0: 5944 ad3b 4872 723c ccad 6d3c 6348 973c
000002d0: a21a 00bd e706 8bbd 2087 4dbc d5da 923b
000002e0: ebb1 fabc 8e09 583c e79d 183c 9058 e7bc
000002f0: c850 2bbd 78cb e0bb 2d70 45bc 5293 e4bc
00000300: 641a 413c baaa a43c c2c9 013c b9e9 963c
00000310: d35f 2d3c 2473 b9ba f462 4fbd 1596 c0bc
00000320: 88f5 ac3c 345c 6b3d ffb7 0dbb 5372 ab3a
00000330: 10c9 89bb ea62 dcbc 5197 e53b 78ee 68bc
00000340: dfc4 efbb 952a 9cbc 4cf8 d7bb 1ed3 933c
00000350: 3d67 303c 1191 e43b aa17 52bb 0c6e 5cbb
00000360: 60a7 0dbb 6253 37bb ec25 d63c 7156 363b
00000370: 8a5b ad3c f776 e03c 99c3 a8bc c86a b53c
00000380: 449a 7cbc 4fe7 023c 3bf7 2abd bb56 4a3c
00000390: 3c48 853b e926 8dbc 702c 70bc 1bc2 e9bc
000003a0: 6673 4fbc fb26 52bd fcdb 753b 4150 0fbd
000003b0: f7b8 21bd 40f1 d1bc f876 5ebd 3687 50bd
000003c0: efc3 b0bc e540 70bc 688c 6dbc 3e19 3dbc
000003d0: a8b3 193c c7db 003d b815 fe3c ca32 273c
000003e0: 5961 f0bc 8a64 f73b 986e 13bc 8221 033d
000003f0: 748b 4e3d 8023 013c bf26 933a 94cc e5bb
-0.022424847 0.004070985 0.010762256 -0.01614928 -0.00065200217 0.054397836 -0.022171356 -2.4974594e-05
-0.015374084 0.012795486 -0.0018476457 0.013395178 -0.015490463 -0.025591774 -0.0005662211 0.034905557
-0.0055713644 0.0016886415 0.044992596 -0.012592067 -0.008347681 -0.011307197 -0.001972703 0.013331951
-0.0011014785 0.003922874 -0.0065693087 -0.018639296 -0.02878047 0.015336401 0.026248563 -0.03230153
-0.034673728 -0.0067168875 -0.05367325 0.00049541343 -0.034910753 -0.012382732 -0.027932122 -0.010613879
-0.00798624 -0.042901777 -0.0047989874 -0.006450364 -0.010111623 -0.010409019 0.009267251 -0.022317233
-0.034132373 0.020727467 -0.009046134 0.03922665 0.03668663 -0.03839074 -0.015265076 -3.2884447e-05
-0.036543135 0.007044733 0.011179036 0.03897033 -0.022461364 0.008051087 -0.018909918 0.009022186
-0.008187661 0.016485974 0.02474106 0.019813761 -0.0024832129 -0.017538406 0.024230579 -0.011465001
-0.0029207147 0.019845221 0.033750392 0.0065466715 -0.007705715 -0.027146775 0.005875986 -0.007982561
0.0015006633 0.0057550967 0.02450011 -0.0044551 -0.006669978 -0.03692951 -0.012479649 0.009095043
-0.01896341 -0.015220748 0.029338062 -0.032585178 -0.003573507 -0.020434098 -0.02544764 -0.0019864377
-0.04479961 0.008136192 -0.010290689 -0.007388179 -0.015561104 -0.037436754 0.07263393 0.006057013
0.017696677 0.019491944 -0.044352867 -0.03217248 0.011895142 0.024651136 0.009273149 0.015561059
0.011638306 0.00451606 -0.044640932 -0.029508637 0.03497269 0.0098159155 -0.100255966 0.016206248
0.03972653 0.015599802 0.025231732 0.031881068 0.028696343 -0.028018143 0.015808033 -0.012683488
0.018937288 -0.023807539 0.014932097 0.027491434 -0.04582186 -0.02113785 -0.032147076 -0.032650545
0.025941864 -0.013419769 -0.071414635 -0.048725188 0.0028013163 0.017570712 -0.017366143 0.0053234925
-0.041335918 -0.036061488 0.017372658 -0.0051763416 -0.0023226126 0.013977642 -0.022656888 0.039405465
-0.016577976 -0.04917332 0.034666087 0.037711926 -0.014510358 -0.006422367 0.038968008 0.017377162
-0.0040740925 0.024593445 0.030926993 0.028261082 0.030561581 0.0015373634 0.011287846 -0.06256843
-0.03324309 0.027864933 -0.005021223 -0.0045276727 -0.028622683 0.002520338 -0.08856592 0.009788568
0.0052876887 0.014797755 0.014506768 0.018467134 -0.0312754 -0.06788426 -0.012544423 0.004481653
-0.030602416 0.013185872 0.009314991 -0.028240472 -0.041825086 -0.006860193 -0.012050671 -0.027902279
0.011786077 0.02010094 0.007921638 0.018421995 0.010581928 -0.0014148694 -0.05063148 -0.023509065
0.021113172 0.05746098 -0.0021624563 0.0013080336 -0.0042048767 -0.026902635 0.0070065637 -0.014217012
-0.00731717 -0.019063273 -0.0065908786 0.018045004 0.010766801 0.006975301 -0.0032057562 -0.003363493
-0.0021614656 -0.0027973284 0.02614113 0.002782252 0.021161813 0.027400477 -0.02060108 0.022145644
-0.015417639 0.007989719 -0.041739684 0.01234978 0.004067449 -0.017230468 -0.014659032 -0.02853494
-0.0126617905 -0.051306706 0.0037515154 -0.034988645 -0.039483037 -0.025627732 -0.054312676 -0.050910197
-0.021577803 -0.01466391 -0.0144988075 -0.011541663 0.009381212 0.031459596 0.031016216 0.01020498
-0.029343294 0.007549827 -0.008998536 0.032014377 0.05042596 0.007881999 0.0011226757 -0.007012913

bias f4 [10]
00000000: 05bf db3b 8eb0 a13b c73e 15ba 69a4 7a3c
00000010: c237 2dbc 52ba c9bb dd1f d0bb 1bd3 7c3a
00000020: c88c d8bc 5afa afbb
0.006706121 0.004934377 -0.00056932535 0.0152979875 -0.010572376 -0.0061562443 -0.0063514546 0.0009644494
-0.026434317 -0.0053704204
